2022-11-06 21:44:25,108 | root |  INFO: Logs are saved in /home/nguwijy/repo/deep_branching_with_domain/notebooks/logs/20221106-214424-abc_3d
2022-11-06 21:44:25,110 | root |  DEBUG: Current configuration: {'training': True, '_parameters': OrderedDict(), '_buffers': OrderedDict(), '_non_persistent_buffers_set': set(), '_backward_hooks': OrderedDict(), '_is_full_backward_hook': None, '_forward_hooks': OrderedDict(), '_forward_pre_hooks': OrderedDict(), '_state_dict_hooks': OrderedDict(), '_load_state_dict_pre_hooks': OrderedDict(), '_modules': OrderedDict([('u_layer', ModuleList(
  (0): Linear(in_features=4, out_features=20, bias=True)
  (1): Linear(in_features=20, out_features=20, bias=True)
  (2): Linear(in_features=20, out_features=20, bias=True)
  (3): Linear(in_features=20, out_features=20, bias=True)
  (4): Linear(in_features=20, out_features=20, bias=True)
  (5): Linear(in_features=20, out_features=20, bias=True)
  (6): Linear(in_features=20, out_features=3, bias=True)
)), ('u_bn_layer', ModuleList(
  (0): BatchNorm1d(20, eps=1e-05, momentum=0.1, affine=True, track_running_stats=True)
  (1): BatchNorm1d(20, eps=1e-05, momentum=0.1, affine=True, track_running_stats=True)
  (2): BatchNorm1d(20, eps=1e-05, momentum=0.1, affine=True, track_running_stats=True)
  (3): BatchNorm1d(20, eps=1e-05, momentum=0.1, affine=True, track_running_stats=True)
  (4): BatchNorm1d(20, eps=1e-05, momentum=0.1, affine=True, track_running_stats=True)
  (5): BatchNorm1d(20, eps=1e-05, momentum=0.1, affine=True, track_running_stats=True)
  (6): BatchNorm1d(20, eps=1e-05, momentum=0.1, affine=True, track_running_stats=True)
)), ('p_layer', ModuleList(
  (0): Linear(in_features=4, out_features=20, bias=True)
  (1): Linear(in_features=20, out_features=20, bias=True)
  (2): Linear(in_features=20, out_features=20, bias=True)
  (3): Linear(in_features=20, out_features=20, bias=True)
  (4): Linear(in_features=20, out_features=20, bias=True)
  (5): Linear(in_features=20, out_features=20, bias=True)
  (6): Linear(in_features=20, out_features=1, bias=True)
)), ('p_bn_layer', ModuleList(
  (0): BatchNorm1d(20, eps=1e-05, momentum=0.1, affine=True, track_running_stats=True)
  (1): BatchNorm1d(20, eps=1e-05, momentum=0.1, affine=True, track_running_stats=True)
  (2): BatchNorm1d(20, eps=1e-05, momentum=0.1, affine=True, track_running_stats=True)
  (3): BatchNorm1d(20, eps=1e-05, momentum=0.1, affine=True, track_running_stats=True)
  (4): BatchNorm1d(20, eps=1e-05, momentum=0.1, affine=True, track_running_stats=True)
  (5): BatchNorm1d(20, eps=1e-05, momentum=0.1, affine=True, track_running_stats=True)
  (6): BatchNorm1d(20, eps=1e-05, momentum=0.1, affine=True, track_running_stats=True)
)), ('loss', MSELoss()), ('activation', Tanh())]), 'f_fun': <function f_example at 0x7f69d6f81790>, 'n': 15, 'dim_in': 3, 'deriv_map': array([[1., 0., 0., 0.],
       [0., 1., 0., 0.],
       [0., 0., 1., 0.],
       [0., 0., 0., 1.],
       [0., 0., 0., 0.],
       [0., 0., 0., 0.],
       [0., 0., 0., 0.],
       [0., 1., 0., 0.],
…
